…
è¦è¿›è¡Œ normalizeï¼Œå› ä¸ºåŸå§‹æ•°æ®æ˜¯ 8bit ç°åº¦å›¾åƒ, æ‰€ä»¥éœ€è¦é™¤ä»¥ 255ã€‚ 12345678910# download the mnist to the path &#x27;~/.keras/datasets/&#x27; if it is the first time to be called# X shape (60,000 28x28), y shape (10,000, )(X_train, y_train), (X_test, y_test) = mnist.load_data()# data pre-processingX_train = X_train.reshape(-1, 28, 28) / 255. # normalizeX_test = X_test.reshape(-1, 28, 28) / 255. # normalizey_train = np_utils.to_categorical(y_train, num_classes=10)y_test = np_utils.to_categorical(y_test, num_classes=10) 12345print(X_train.shape)print(y_train.shape)(60000, 28, 28)(60000, 10) 2. build model 1234567891011# build RNN modelmodel = Sequential()# RNN cellmodel.add(SimpleRNN( # for batch_input_shape, if using tensorflow as the backend, we have to put None for the batch_size. # Otherwise, model.evaluate() will get error. batch_input_shape=(None, TIME_STEPS, INPUT_SIZE), # Or: input_dim=INPUT_SIZE, input_length=TIME_STEPS, output_dim=CELL_SIZE, unroll=True,)) 1234567891011# output layermodel.add(Dense(OUTPUT_SIZE))model.add(Activation(&#x27;softmax&#x27;))# optimizeradam = Adam(LR)model.compile(optimizer=adam, loss=&#x27;categorical_crossentropy&#x27;, metrics=[&#x27;accuracy&#x27;])model.summary() _________________________________________________________________ Layer (type) Output Shape Param # ================================================================= simple_rnn_1 (SimpleRNN) (None, 50) 3950 _________________________________________________________________ dense_1 (Dense) (None, 10) 510 _________________________________________________________________ activation_1 (Activation) (None, 10) 0 _________________________________________________________________ dense_2 (Dense) (None, 10) 110 _________________________________________________________________ activation_2 (Activation) (None, 10) 0 ================================================================= Total params: 4,570 Trainable params: 4,570 Non-trainable params: 0 _________________________________________________________________ è®¾ç½®ä¼˜åŒ–æ–¹æ³•ï¼Œlosså‡½æ•° å’Œ metrics æ–¹æ³•ä¹‹åå°±å¯ä»¥å¼€å§‹è®­ç»ƒäº†ã€‚ æ¯æ¬¡è®­ç»ƒçš„æ—¶å€™å¹¶ä¸æ˜¯å–æ‰€æœ‰çš„æ•°æ®ï¼Œåªæ˜¯å– BATCH_SIZEä¸ªåºåˆ—ï¼Œæˆ–è€…ç§°ä¸º BATCH_SIZE å¼ å›¾ç‰‡ï¼Œè¿™æ ·
…
 7 * 7) = (3136), output shape (1024) 123model.add(Flatten())model.add(Dense(1024))model.add(Activation(&#x27;relu&#x27;)) Fully connected layer 2 to shape (10) for 10 classes 12model.add(Dense(10))model.add(Activation(&#x27;softmax&#x27;)) define your optimizer 12# Another way to define your optimizeradam = Adam(lr=1e-4) keras.layers.Conv1D 1D å·ç§¯å±‚ (ä¾‹å¦‚æ—¶åºå·ç§¯) Keras Convolution1Dä¸Convolution2DåŒºåˆ« _________________________________________________________________ Layer (type) Output Shape Param # ================================================================= conv2d_3 (Conv2D) (None, 32, 28, 28) 832 _________________________________________________________________ activation_5 (Activation) (None, 32, 28, 28) 0 _________________________________________________________________ max_pooling2d_3 (MaxPooling2 (None, 32, 14, 14) 0 _________________________________________________________________ conv2d_4 (Conv2D) (None, 64, 14, 14) 51264 _________________________________________________________________ activation_6 (Activation) (None, 64, 14, 14) 0 _________________________________________________________________ max_pooling2d_4 (MaxPooling2 (None, 64, 7, 7) 0 _________________________________________________________________ flatten_2 (Flatten) (None, 3136) 0 _________________________________________________________________ dense_3 (Dense) (None, 1024) 3212288 _________________________________________________________________ activation_7 (Activation) (None, 1024) 0 _________________________________________________________________ dense_4 (Dense) (None, 10) 10250 _________________________________________________________________ activation_8 (Activation) (None, 10) 0 ================================================================= Total params: 3,274,634 Trainable params: 3,274,634 Non-trainable params: 0 _________________________________________________________________ 3. compile model è®¾ç½®adamä¼˜åŒ–æ–¹æ³•ï¼Œlosså‡½æ•°, metricsæ–¹æ³•æ¥è§‚å¯Ÿè¾“å‡ºç»“æœ 1234# We add metrics to get more results you want to seemodel.compile(optimizer=adam, loss=&#x27;categor
…
