…
一张图片也就是一个序列，所以步长 TIME_STEPS = 28。 训练数据要进行 normalize，因为原始数据是 8bit 灰度图像, 所以需要除以 255。 12345678910# download the mnist to the path &#x27;~/.keras/datasets/&#x27; if it is the first time to be called# X shape (60,000 28x28), y shape (10,000, )(X_train, y_train), (X_test, y_test) = mnist.load_data()# data pre-processingX_train = X_train.reshape(-1, 28, 28) / 255. # normalizeX_test = X_test.reshape(-1, 28, 28) / 255. # normalizey_train = np_utils.to_categorical(y_train, num_classes=10)y_test = np_utils.to_categorical(y_test, num_classes=10) 12345print(X_train.shape)print(y_train.shape)(60000, 28, 28)(60000, 10) 2. build model 1234567891011# build RNN modelmodel = Sequential()# RNN cellmodel.add(SimpleRNN( # for batch_input_shape, if using tensorflow as the backend, we have to put None for the batch_size. # Otherwise, model.evaluate() will get error. batch_input_shape=(None, TIME_STEPS, INPUT_SIZE), # Or: input_dim=INPUT_SIZE, input_length=TIME_STEPS, output_dim=CELL_SIZE, unroll=True,)) 1234567891011# output layermodel.add(Dense(OUTPUT_SIZE))model.add(Activation(&#x27;softmax&#x27;))# optimizeradam = Adam(LR)model.compile(optimizer=adam, loss=&#x27;categorical_crossentropy&#x27;, metrics=[&#x27;accuracy&#x27;])model.summary() _________________________________________________________________ Layer (type) Output Shape Param # ================================================================= simple_rnn_1 (SimpleRNN) (None, 50) 3950 _________________________________________________________________ dense_1 (Dense) (None, 10) 510 _________________________________________________________________ activation_1 (Activation) (None, 10) 0 _________________________________________________________________ dense_2 (Dense) (None, 10) 110 _________________________________________________________________ activation_2 (Activation) (None, 10) 0 ================================================================= Total params: 4,570 Trainable params: 4,570 Non-trainable params: 0 _________________________________________________________________ 设置优化方法，loss函数 和 metrics 方法之后就可以开始训练了。 每次训练的时候并不是取所有的数据，只是取 BATCH_SIZE个序列，或者称为 BATCH_SIZE 张图片，这样可以大大降低运算时间，提高训练效率。 3. training &amp; evaluate 输出 test 上的 loss 和 accuracy 结果 123456789101112131415# train
…
 1 input shape (64 * 7 * 7) = (3136), output shape (1024) 123model.add(Flatten())model.add(Dense(1024))model.add(Activation(&#x27;relu&#x27;)) Fully connected layer 2 to shape (10) for 10 classes 12model.add(Dense(10))model.add(Activation(&#x27;softmax&#x27;)) define your optimizer 12# Another way to define your optimizeradam = Adam(lr=1e-4) keras.layers.Conv1D 1D 卷积层 (例如时序卷积) Keras Convolution1D与Convolution2D区别 _________________________________________________________________ Layer (type) Output Shape Param # ================================================================= conv2d_3 (Conv2D) (None, 32, 28, 28) 832 _________________________________________________________________ activation_5 (Activation) (None, 32, 28, 28) 0 _________________________________________________________________ max_pooling2d_3 (MaxPooling2 (None, 32, 14, 14) 0 _________________________________________________________________ conv2d_4 (Conv2D) (None, 64, 14, 14) 51264 _________________________________________________________________ activation_6 (Activation) (None, 64, 14, 14) 0 _________________________________________________________________ max_pooling2d_4 (MaxPooling2 (None, 64, 7, 7) 0 _________________________________________________________________ flatten_2 (Flatten) (None, 3136) 0 _________________________________________________________________ dense_3 (Dense) (None, 1024) 3212288 _________________________________________________________________ activation_7 (Activation) (None, 1024) 0 _________________________________________________________________ dense_4 (Dense) (None, 10) 10250 _________________________________________________________________ activation_8 (Activation) (None, 10) 0 ================================================================= Total params: 3,274,634 Trainable params: 3,274,634 Non-trainable params: 0 _________________________________________________________________ 3. compile model 设置adam优化方法，loss函数, metrics方法来观察输出结果 1234# We add metrics to get more results you want to seemodel.compile(optimizer=adam, loss=&#x27;categorical_crossentropy&#x27;, metrics=[
…
