…
an class="line">model.compile(optimizer=adam,</span><br><span class="line">              loss=<span class="string">'categorical_crossentropy'</span>,</span><br><span class="line">              metrics=[<span class="string">'accuracy'</span>])</span><br><span class="line"></span><br><span class="line">model.summary()</span><br></pre></td></tr></table></figure>
<pre><code>_________________________________________________________________
Layer (type)                 Output Shape              Param #   
=================================================================
simple_rnn_1 (SimpleRNN)     (None, 50)                3950      
_________________________________________________________________
dense_1 (Dense)              (None, 10)                510       
_________________________________________________________________
activation_1 (Activation)    (None, 10)                0         
_________________________________________________________________
dense_2 (Dense)              (None, 10)                110       
_________________________________________________________________
activation_2 (Activation)    (None, 10)                0         
=================================================================
Total params: 4,570
Trainable params: 4,570
Non-trainable params: 0
_________________________________________________________________
</code></pre><p>è®¾ç½®ä¼˜åŒ–æ–¹æ³•ï¼Œlosså‡½æ•° å’Œ <code>metrics</code> æ–¹æ³•ä¹‹åå°±å¯ä»¥å¼€å§‹è®­ç»ƒäº†ã€‚ æ¯æ¬¡è®­ç»ƒçš„æ—¶å€™å¹¶ä¸æ˜¯å–æ‰€æœ‰çš„æ•°æ®ï¼Œåªæ˜¯å– <code>BATCH_SIZE</code>ä¸ªåºåˆ—ï¼Œæˆ–è€…ç§°ä¸º <code>BATCH_SIZE</code> å¼ å›¾ç‰‡ï¼Œè¿™æ ·å¯ä»¥å¤§å¤§é™ä½è¿ç®—æ—¶é—´ï¼Œæé«˜è®­ç»ƒæ•ˆç‡ã€‚</p>
…
<figure class="highlight python"><table><tr><td class="code"><pre><span class="line"><span class="comment"># Another way to define your optimizer</span></span><br><span class="line">adam = Adam(lr=<span class="number">1e-4</span>)</span><br></pre></td></tr></table></figure>
<p><a href="https://keras.io/zh/layers/convolutional/" target="_blank" rel="external">keras.layers.Conv1D 1D å·ç§¯å±‚ (ä¾‹å¦‚æ—¶åºå·ç§¯)</a><br><a href="https://blog.csdn.net/qq_19707521/article/details/78486185" target="_blank" rel="external">Keras Convolution1Dä¸Convolution2DåŒºåˆ«</a></p>
<pre><code>_________________________________________________________________
Layer (type)                 Output Shape              Param #   
=================================================================
conv2d_3 (Conv2D)            (None, 32, 28, 28)        832       
_________________________________________________________________
activation_5 (Activation)    (None, 32, 28, 28)        0         
_________________________________________________________________
max_pooling2d_3 (MaxPooling2 (None, 32, 14, 14)        0         
_________________________________________________________________
conv2d_4 (Conv2D)            (None, 64, 14, 14)        51264     
_________________________________________________________________
activation_6 (Activation)    (None, 64, 14, 14)        0         
_________________________________________________________________
max_pooling2d_4 (MaxPooling2 (None, 64, 7, 7)          0         
_________________________________________________________________
flatten_2 (Flatten)          (None, 3136)              0         
_________________________________________________________________
dense_3 (Dense)              (None, 1024)              3212288   
_________________________________________________________________
activation_7 (Activation)    (None, 1024)              0         
_________________________________________________________________
dense_4 (Dense)              (None, 10)                10250     
_________________________________________________________________
activation_8 (Activation)    (None, 10)                0         
=================================================================
Total params: 3,274,634
Trainable params: 3,274,634
Non-trainable params: 0
_________________________________________________________________
</code></pre><h2 id="3-compile-model"><a href="#3-compile-model" class="headerlink" title="3. compile model"></a>3. compile model</h2><p>è®¾ç½®adamä¼˜åŒ–æ–¹æ³•ï¼Œlosså‡½æ•°, metricsæ–¹æ³•æ¥è§‚å¯Ÿè¾“å‡ºç»“æœ</p>
…
